assets/model/model.tflite (tflite, 468564 bytes, 23 tensors)

sequential/dense_9/BiasAdd/ReadVariableOp f4 [105]
00000000: c647 9b3d c035 bd3d 18d7 9a3d 2e62 8ebb
00000010: 9a49 b1bb a00e c3bb 0238 c33d 2afe 66bb
00000020: b0d5 8d3d d75c 693d 3f14 063d 0885 8ebc
00000030: 8731 513d 9d9b 8ebc 34fb 4b3d d003 bbbc
00000040: e711 453d 6e01 3bbc 7ea3 c2bb 4849 cc3c
00000050: fb13 8c3d 0de4 94bc 0e58 913d 7d60 bd3d
00000060: b582 5ebb 83cd 453d d6ec 8abb 190c 8dbc
00000070: a16c 84bc e58b a8bc 3c8e 3c3d 78ff a53d
00000080: c823 c0bb 96ce abbc aee5 1ebc ede2 493d
00000090: cfae c5bb 64c2 95bc 0fc4 493d 9bb6 833d
000000a0: 5e91 87bc 13ce c3bb 0a3b 633d 0008 063d
000000b0: cd02 5c3d 2c8a c3bb a2d8 c3bb f3dc 90bc
000000c0: 35c5 95bb dbbc c2bb ac2f ec3c 143e 9f3d
000000d0: 4b74 88bc 2b85 bdbc fece 4cbc d2ba 6ebb
000000e0: c13e a7bb 127e 8b3d ff0e a63d f97b 92bb
000000f0: 7c75 0e3d 3767 5a3d 42e0 9c3d ff65 9e3d
00000100: 5c07 7ebb 55e1 a7bc ebee c2bc 8c63 2e3d
00000110: 7481 483d 3911 903d c891 b33d 1154 503d
00000120: 239b c9b9 6f4c 963d 0000 0000 e80f b43d
00000130: 9da8 bcbb b472 85bc 0a23 caba c025 933d
00000140: 3652 273d b8ac 9f3d 1542 523c eb59 ad3d
00000150: a50e b3bc c57b 483d 2371 943d beb7 18bc
00000160: c872 8ebc 856b 873d aa05 5f3d 7938 91bc
00000170: feff 8cbc b0c2 933d 6d56 8e3d 45a3 64bb
00000180: d83f 973d 6f4e 9abb 38b2 6d3d e2b7 793d
00000190: ecec c1bb 6acb 883d 4ec7 813d 139e 46bc
000001a0: 1a4e 5a3d
0.07582049 0.092387676 0.07560557 -0.0043452 -0.0054103853 -0.005952671 0.09532167 -0.0035246708
0.06925523 0.056973305 0.032734152 -0.017397419 0.051072624 -0.017408187 0.049800113 -0.022828966
0.048112776 -0.011413915 -0.0059399 0.024937287 0.068397485 -0.01817515 0.07096873 0.09246919
-0.003395242 0.048291694 -0.004239659 -0.017217683 -0.01616508 -0.02057452 0.046034083 0.081053674
-0.0058636405 -0.020972531 -0.009698315 0.04928868 -0.0060328017 -0.01828117 0.04925924 0.064313136
-0.016548809 -0.0059754937 0.055476226 0.032722473 0.05371361 -0.005967399 -0.0059767524 -0.017683482
-0.004570628 -0.0059429235 0.028831325 0.07775512 -0.016657015 -0.023134788 -0.012500523 -0.0036427272
-0.0051039164 0.068111554 0.08108329 -0.004470345 0.03478001 0.05332109 0.07659961 0.07734298
-0.003876171 -0.020493189 -0.023795566 0.042575404 0.04895158 0.07034535 0.0876804 0.050861422
-0.00038453293 0.07338797 0.0 0.087920964 -0.005757405 -0.016290046 -0.0015421819 0.071849346
0.040849887 0.07796615 0.012833138 0.08464416 -0.021857569 0.04894616 0.072481416 -0.009321151
-0.017388716 0.066123046 0.05444876 -0.017727124 -0.01721191 0.07214868 0.06950078 -0.0034887355
0.07385224 -0.004709057 0.05803129 0.06096638 -0.005918136 0.06679423 0.063368425 -0.012122649
0.05329714

sequential/dense_8/BiasAdd/ReadVariableOp f4 [105]
00000000: d1f5 483d 8c37 8f3d a2d1 b0bc 22eb 583d
00000010: dbd1 543d 183e 9d3d 2fbc 8d3b ecff 4a3d
00000020: 3b9d 5c3d 93b3 35bc a058 193d cdb5 eebb
00000030: 9317 b53d 50b5 393d 3619 34ba 2b18 073d
00000040: abb6 343d 05e4 b73d 6108 ccbc 6f3c 2f3d
00000050: d57a c2bc f88d 823d 911f b5bc e398 e4bc
00000060: 1afa 5a3d 84bb 9f3d 0964 4f3d 3054 89bc
00000070: 2fd3 f03c 8d66 9f3d 72bf b23d cded 87bc
00000080: bad7 11bd d5c3 ccbb f243 8e3d 3a58 a13d
00000090: 7240 8dbb 27d2 983d 73ea ad3d aa14 a5bc
000000a0: bbe7 893d b7ad 4e3c a75f 303d ce94 5fbc
000000b0: dba7 323d 73eb b23d 6f45 853d 87ed bebb
000000c0: 140c 893d cd71 2a3d 4f91 603d 8340 c03d
000000d0: ae89 bebb 6c25 353d f9e4 623d 52a2 bdbb
000000e0: bb4e b1bc e9cd 83bc 2da4 a23d ee31 243d
000000f0: 2b15 92bb b3e2 703d ebf1 2a3d 74ab fb3c
00000100: 69bf 353d ff31 a03d 1cdb bc3d c138 453d
00000110: 600a 89bc bc09 b4bb 0000 0000 b341 b8bb
00000120: 0558 593d 2aa6 bd3d 7bbc af3d 87ed 5e3d
00000130: 47f7 3dbc 0b09 573d e98f 483d 5cdb 923d
00000140: 7bbd a53d 2081 aa3d fd8d 783d 318f 573d
00000150: 2ec7 e7bc b1c5 83bc 8b63 953d e926 993d
00000160: f914 813d bfe9 913d fd36 3b3d 5adf a63d
00000170: 959d b43d ca61 dd3b 9d17 343d b74d a93d
00000180: 3c49 4f3d 2912 373c afe4 803d dbd1 aabb
00000190: 31d3 973d 3f3e c7bb 9084 a13d 8dea 863d
000001a0: eb12 a9bc
0.049062554 0.069930166 -0.021584336 0.052958615 0.051957946 0.07677859 0.0043254117 0.049560472
0.053860884 -0.011090177 0.037438035 -0.007284856 0.08842387 0.04533893 -0.0006870212 0.032982033
0.04411952 0.08979038 -0.02490634 0.042782243 -0.023740212 0.06374735 -0.022109779 -0.027904933
0.05346117 0.07799438 0.05063251 -0.016763777 0.029397575 0.07783232 0.087279215 -0.016592884
-0.035606124 -0.006248931 0.06946553 0.07878156 -0.004310661 0.074619584 0.08491983 -0.020151455
0.06733652 0.012614659 0.04305997 -0.013646318 0.04361711 0.087363146 0.06507384 -0.0058266553
0.06691757 0.041612435 0.054826077 0.09387305 -0.0058147525 0.04422514 0.055394147 -0.0057871724
-0.021643987 -0.016089397 0.0794147 0.04008668 -0.00445809 0.058809947 0.041734617 0.030721404
0.044371996 0.07822036 0.09221479 0.048149828 -0.01672858 -0.0054943245 0.0 -0.0056230663
0.053062458 0.09260209 0.08580872 0.054425742 -0.0115946 0.05249886 0.04896537 0.07170746
0.08092781 0.0832541 0.060682286 0.052626792 -0.028293218 -0.016085478 0.07294377 0.07478125
0.06302828 0.07124662 0.045706738 0.0814807 0.08819119 0.006756042 0.043967832 0.08266776
0.05060695 0.011173763 0.06293618 -0.005213005 0.074133284 -0.0060804184 0.078866124 0.06587706
-0.020638904

sequential/dense_7/BiasAdd/ReadVariableOp f4 [105]
00000000: cbc9 ca3c 530b a73d 5f4c 633d 8a08 9b3b
00000010: aca6 1ebd a085 4cbd 17c0 d63c 934d b73d
00000020: 45dd ad3c 684c 903c f565 a63d ec80 973d
00000030: bb5b ba3c d1af 9e3d 288f f83c 8b86 06bd
00000040: 3950 1d3d d08e 3f3d 1398 953d bbf1 87ba
00000050: 8273 4f3d d216 133d 7e57 a63d b9c1 2f3d
00000060: 5c88 e439 8657 af3d 6141 edbc 542d 983d
00000070: 7d4b 863d 0aaa 073d ab81 863d 40d9 4b3d
00000080: 1787 b33d b22b 473c a257 ab3d 3315 873d
00000090: 0db8 8f3d 111f 123d 1bcf 1d3d e92c 6c3d
000000a0: cd1b ee3c f6cb 85bc b14a 2cbd 5058 113d
000000b0: 9412 88bc ebd8 b03d 22da 943d 721f 3a3d
000000c0: 3d28 0b3d d4df 163d b945 513d 1203 cd3c
000000d0: 807c b23d e0e0 a13d 2878 3f3d 968c b7bc
000000e0: 2b0d 85bb 74c1 633d a14e 2d3d 7a80 6b3d
000000f0: 82b8 bbbc 4f3a c53c 7147 893d 38af e3bc
00000100: e596 b5bc 037b 8fbc 158d cb3c f0c3 913d
00000110: fcf4 3c3c 376b b23d 505d 523d 8082 693c
00000120: 5389 bc3c c1bf f93b e6a8 0e3c 5166 42bc
00000130: 3ae5 9c3d 8b5a b43d c41a 173d 16c9 353d
00000140: 2c7c f13c 0a62 0d3d 90aa 833d 0758 9ebc
00000150: 69f3 b33d 316d 8a3d d7a7 9d3d 9748 823d
00000160: ce80 a83d 4c09 923d 4cad 96bb d388 203b
00000170: 7082 4b3d 753e ab3d 3457 053d 57f5 dc3c
00000180: 4796 ae3d bb14 8a3d 0cbe d73c 4f42 533d
00000190: a860 223d fe79 943d 4595 463d ba4c 033d
000001a0: 2bc3 ad3c
0.024754426 0.08156457 0.055492755 0.0047312425 -0.03873317 -0.049932122 0.026214642 0.08950343
0.021223674 0.017614558 0.081249155 0.07397637 0.022748819 0.07748378 0.0303417 -0.032843154
0.038406584 0.046767056 0.073043965 -0.0010371724 0.050647266 0.035910435 0.081221566 0.042909358
0.00043589144 0.08561616 -0.02896184 0.07430521 0.06557367 0.033121146 0.06567701 0.049767733
0.08766001 0.012156414 0.08366324 0.0659584 0.07017527 0.03567416 0.03852759 0.057660017
0.02906599 -0.016332608 -0.04206342 0.035484612 -0.016610421 0.08635124 0.07268168 0.045440145
0.03397392 0.036834553 0.051091883 0.025025878 0.08715153 0.079042196 0.04674545 -0.022405904
-0.0040604076 0.055604413 0.042311314 0.05749557 -0.022915129 0.024075655 0.067030795 -0.027793512
-0.022166679 -0.017514711 0.024847547 0.0711745 0.011533018 0.08711856 0.05135852 0.014252305
0.0230147 0.007621736 0.008707261 -0.011865214 0.07660909 0.08806332 0.03689076 0.044381224
0.029478155 0.034517325 0.064290166 -0.019329084 0.08786661 0.06759108 0.076980285 0.06361502
0.082276925 0.071306795 -0.0045982953 0.0024495616 0.04968494 0.08361522 0.032553867 0.026972456
0.08524757 0.06742235 0.026335739 0.05157691 0.03964296 0.07249831 0.0484822 0.032055594
0.021211227

sequential/dense_6/BiasAdd/ReadVariableOp f4 [105]
00000000: 9877 52bb 1a0b cbbb ab49 0b3d f6e0 583c
00000010: 7fc3 25bb 70eb a23d 3478 303d 5aca 973c
00000020: afd6 f2bc dbb5 c8bc c38b 63bc 61d6 abbc
00000030: 4625 82bb 4fb4 a6bc 361b fdbb bad9 493c
00000040: 7f20 4cbb fb26 96bc 209d 133d f732 a13c
00000050: 9687 b5bc 7d62 f13a 4f33 b7bc f069 df3c
00000060: 132f 41bd 723b babc f78b a83c ad68 b7bb
00000070: 1a32 42bc 0000 0000 982b c03c dac1 963d
00000080: f56e c33c 3227 68bc a565 9f3d 20fd 713d
00000090: 37c3 e03c 6ff5 bbba 0000 0000 f323 ae3a
000000a0: 0586 883d 9953 dc3c 111b c9bb 803e 003c
000000b0: 4cdb f6bc 3995 0bbc 8f73 533c 1f16 70ba
000000c0: 95cc 0bbb 88ac d63c f223 9abb 4a3e 7a3c
000000d0: 8571 66bb e700 bc39 4e7f 953d 28d2 dbbc
000000e0: 7e75 82bc 3e54 273d 0000 0000 29b6 51bc
000000f0: aacf 78bb 15df 883c 4e5c 41bc 4ec1 bebc
00000100: 0e06 cdbc df5c 80bb c5a3 64bc 6d37 c2bc
00000110: 15f4 813c ca4b 9c3c 5fc8 c9bc 8f55 0e3d
00000120: 0c03 27bd 1b91 133d 4744 a9bc d8cd c43c
00000130: 5665 85bc d987 193d b0a4 41bd 4c38 2bbc
00000140: dc09 9f3b df9d d3bc 337e 52bc 739e ef3c
00000150: 8ef0 f5ba 2e16 7fbc 3112 a13d 4236 c43c
00000160: c066 debc 783a 6d3d 6e5c 543c 7ea7 95bb
00000170: 37e9 fe3b e75e 97bc 8c1a e1bc da9c 573c
00000180: 0000 0000 205a 36bb ca99 b23c fb50 073d
00000190: 50b0 e03c 2297 8bbc b4dc bbbc db1b 94bc
000001a0: 5e0b bbb9
-0.003211474 -0.006196392 0.034005802 0.013237229 -0.0025293527 0.079550624 0.043083385 0.018529106
-0.029643385 -0.024500778 -0.013888302 -0.020976247 -0.0039717285 -0.02034965 -0.007724191 0.012319976
-0.00311473 -0.018329134 0.036038518 0.019677622 -0.022159379 0.0018416193 -0.022363333 0.027272195
-0.047164034 -0.022733424 0.020574553 -0.005597195 -0.011852765 0.0 0.023458287 0.07361193
0.02385662 -0.014169501 0.07783059 0.05907929 0.027436836 -0.0014340113 0.0 0.001328586
0.06666187 0.026895331 -0.00613726 0.007827401 -0.030133866 -0.008519464 0.012905969 -0.000915857
-0.0021331657 0.026205316 -0.004703992 0.01527364 -0.0035162878 0.00035858827 0.07299672 -0.026833609
-0.015925165 0.040851824 0.0 -0.012799778 -0.0037965574 0.016707936 -0.011801792 -0.023285534
-0.025027301 -0.003917321 -0.013955061 -0.02370807 0.015863458 0.019079108 -0.024631677 0.034749564
-0.04077439 0.036027055 -0.02066244 0.024023935 -0.016283672 0.03748307 -0.0472762 -0.010450434
0.0048534703 -0.025832115 -0.012847471 0.02925036 -0.0018763707 -0.015569253 0.07864798 0.023951653
-0.027148604 0.05791709 0.01296149 -0.0045670858 0.007779266 -0.01847787 -0.027478479 0.013159955
0.0 -0.0027824715 0.021801848 0.033036213 0.027427822 -0.01703984 -0.022932388 -0.018079689
-0.0003567589

sequential/dense_5/BiasAdd/ReadVariableOp f4 [105]
00000000: 31b4 c4bc ff3d 65bd 7e5c 1a3d e3a4 6e3d
00000010: b0d5 da3c ff45 163d fb40 543d b703 ecbb
00000020: 9dde 13bc 63e2 d33c 8f9d 2ebd cd05 453d
00000030: b2a4 65bc 2e6c d33c 8463 b8bc 7995 9bbc
00000040: c95c d9bc 7303 06bd c588 97bc e93c 12bb
00000050: 791b 1cbd fb4b 53bc 5a49 03bc 9459 03bd
00000060: ffe5 adbc 55b9 28bc 554a 093c c2ba fdbb
00000070: d8e3 35bc b50e 213d 7f46 0fbb c02a f43c
00000080: 7f0c d63c d6a0 9dbc 4eba b2bc dead 79ba
00000090: cca0 3b3d 3267 4bbc 291e d2bc e563 e0bc
000000a0: f992 333d f6d7 86bc 8f41 04bd 0621 11bd
000000b0: 5527 08bd 9174 f0bc a425 8dbc 4128 253c
000000c0: a816 faba 801a 823c 3e60 fa3b 5b66 43b9
000000d0: bb77 eebc 7c99 b7bc 5b59 b63c 32a8 b1bc
000000e0: 3c17 4ebb c21e 19ba 3055 843c 4a90 9c3c
000000f0: 6bba 03bd 562e 64bc c956 30bd fd41 3a3d
00000100: 945c 8d3c ab21 40bc bc02 64b7 15f1 a1bc
00000110: f441 83ba 16bf 6e3c 3454 3c3d 20f2 d63c
00000120: c99b 47bc 6dd0 8fbc 067f 2d3d c567 ecbb
00000130: 2eae 3ebc a09e abbc cdd0 c03c b911 4fbc
00000140: 67e1 f3b9 397f 66bc 9603 983b e515 98bc
00000150: 600f 18bb 17aa e4bc 20e1 adbc 69ce 77bc
00000160: a3e2 c4bc 472c 833c 13fb 21bc 77c7 173d
00000170: ed10 453c 8485 8cba 7989 fabc f718 953c
00000180: ad42 4abc 1036 0d3d ba32 dabc 738a 55bc
00000190: 7b51 183d b96f 513c 4a21 003d e79c ba3c
000001a0: 035c 8cbc
-0.024011703 -0.055967327 0.037685864 0.058262717 0.026713222 0.036687847 0.051819783 -0.0072025913
-0.009025243 0.025864786 -0.04263073 0.048101235 -0.014016317 0.02580842 -0.02250839 -0.018992173
-0.026533501 -0.032718133 -0.018497834 -0.0022314137 -0.038112137 -0.012896533 -0.008013094 -0.03206785
-0.021227835 -0.010298093 0.008379539 -0.0077432105 -0.011101685 0.039320666 -0.0021862087 0.029805541
0.026129005 -0.019241732 -0.021817353 -0.00095245044 0.045807645 -0.01241474 -0.025649147 -0.027391383
0.043841336 -0.0164604 -0.032289084 -0.035431884 -0.033240635 -0.029352458 -0.017229863 0.010080398
-0.0019080238 0.015881777 0.0076408675 -0.0001863478 -0.029109826 -0.022412054 0.022259405 -0.021686647
-0.0031446954 -0.000584107 0.016153902 0.019111771 -0.032160204 -0.013927063 -0.043051515 0.045473088
0.017256059 -0.011726777 -1.3590496e-05 -0.019768277 -0.0010014162 0.014571926 0.04597874 0.026238501
-0.012183138 -0.01755544 0.042357467 -0.0072145187 -0.011638207 -0.020949662 0.023537064 -0.012638503
-0.0004651651 -0.014068418 0.0046390994 -0.018565128 -0.0023202524 -0.027913136 -0.021225512 -0.015124896
-0.02403385 0.016012324 -0.009886521 0.03705546 0.012027961 -0.0010720943 -0.03058313 0.01820038
-0.012344998 0.034475386 -0.026635516 -0.013033497 0.03718708 0.012782984 0.031281747 0.022779895
-0.017133718

sequential/dense_4/BiasAdd/ReadVariableOp f4 [105]
00000000: d69c a13b 3d40 64bc c652 a7bb dae2 f63c
00000010: 2f2e 373c 5874 f3bc 010a 7fbd 5c44 febb
00000020: 8f95 093d 4655 5dbd 2e63 e63c 36bf fa3c
00000030: a18d bdbc c596 2bbc 1b03 e93c ee06 1b3c
00000040: 2c1a b139 1c72 09bd 757d 0b3d dcea 463c
00000050: f2ca 2bbd d1e4 d8bc b893 8c3b 1005 233b
00000060: 5885 ad3b 2eff 4dbc b23b 96bc a1a4 72bb
00000070: 26b1 343c 9d3d 39ba 6a05 10bd d43f dabc
00000080: 23e4 4e3b fd15 6bbc f65a 0b3a 8665 59bc
00000090: b649 ec3c 2149 503c 6a22 873c e259 bdbc
000000a0: b208 24bd 760d 39bd 19ad b03c 7888 2bbd
000000b0: 1b69 83bc 500f 0c3d 457b 503b efad da3c
000000c0: e135 c43c 9a09 f33c b462 543c a7ce e0bb
000000d0: 33a3 423c b6ee 80bc 77ac d4bb a408 bb3c
000000e0: 84b7 46bb 3ce5 c43c a64b 3c3c 2984 f23c
000000f0: 4e1a 603c 8150 743b 3fb4 bb3c 574e 9e3c
00000100: 5ad6 0f3c af8e 283c 06f3 cf3b 91e7 d63c
00000110: c853 f1bc fcda 7f3b 24e5 46bd b58d 5c3c
00000120: b869 b33c 03a8 aa3c 374b 383c 2dc2 d2bc
00000130: bfe9 0b3d 6d09 9e3c 477c 19bd 35b2 9c3b
00000140: fccf 40bb ec92 03bd ed11 0b3d 78cf 203d
00000150: 855a a33c a4c9 c6bc 3995 f83c 52da c8bc
00000160: b3a1 d63c 68ce aebc ac22 533c a0cf bcbb
00000170: 74db aa3c 3f19 d3bc 8d74 7dbc 625b 273c
00000180: 72d9 adbb 0fd8 15bd c50d b8b9 ec66 abbc
00000190: 46a4 f93c 14ef 4cbd d3b6 be3b 5d6f a2bc
000001a0: 13d0 5b3b
0.0049320264 -0.013931331 -0.005106303 0.030137468 0.011180445 -0.029718563 -0.0622654 -0.007759614
0.033589896 -0.0540364 0.028123464 0.030608755 -0.023138823 -0.010472958 0.028443864 0.009462101
0.0003377957 -0.03355609 0.034055192 0.012140956 -0.04194159 -0.026476296 0.0042900704 0.0024874844
0.005295437 -0.012573047 -0.018339012 -0.0037024396 0.011028564 -0.0007066371 -0.035161413 -0.026641764
0.0031569086 -0.014348504 0.00053159834 -0.013268834 0.028843742 0.012712748 0.016495902 -0.023114149
-0.040047355 -0.045178853 0.021566914 -0.041878194 -0.01604133 0.03419429 0.0031811756 0.026694266
0.023951473 0.029667664 0.012962986 -0.0068605724 0.01187973 -0.015738826 -0.006490286 0.022831269
-0.0030321786 0.024035089 0.011492645 0.029604034 0.0136781465 0.003727943 0.022913096 0.019324465
0.008779133 0.010287925 0.0063461093 0.026233466 -0.029458895 0.0039040437 -0.04855837 0.01346152
0.021900997 0.020832067 0.011248401 -0.025727356 0.034158465 0.019291604 -0.037472036 0.004781986
-0.0029420843 -0.032122537 0.033952642 0.039260358 0.019940624 -0.024266072 0.030344592 -0.024518166
0.026200151 -0.021338657 0.012886684 -0.0057620555 0.020856597 -0.025768874 -0.015469682 0.010214658
-0.0053054625 -0.036583003 -0.00035105474 -0.0209231 0.03047384 -0.05003269 0.005820134 -0.019828493
0.003354077

sequential/dense_3/BiasAdd/ReadVariableOp f4 [105]
00000000: c63a 58bc b079 5b3d f4f0 83bc 13f5 e7bc
00000010: 0000 0000 5628 923a 3873 47bd 3e9b f4bc
00000020: b81d 3dbd 3c96 3fbc 02f4 d2b9 ba62 00bd
00000030: 2f52 28bd 2c0d e4bc 3667 62b9 c4f6 033c
00000040: 5187 b03a 6196 2ebd d386 96bc 2159 a0bb
00000050: ef01 23bd 5110 3abd e3b9 dc3c f96d f6bc
00000060: 8fc4 fdbc c245 373c 20a0 d4bc b1ec 343c
00000070: 8936 8abc 41c6 bcbc 6960 d83c a2b4 043d
00000080: 3106 ee3c 4439 33bd 195c 073d a5f8 09bd
00000090: 7626 1cbd 422c 7fba 0138 cabb b589 c03b
000000a0: 9bfa a4bc d90c 13bd 0da6 923c bb32 62bc
000000b0: 71ed a9bc 745a 93bc 224e fa3b 3950 193d
000000c0: f672 b1bc c39c 90bc c063 cabc ca8f 7fbc
000000d0: 59ba 04bd 7797 703c 55a8 863c ec7c 4cbb
000000e0: da0b ecbc e41b 75bc 0a61 0abd c2b9 d1bc
000000f0: 4122 283c 951a ba3c 2032 e73c 39eb f53b
00000100: 1370 e2bc 139e a2bc 8138 163d c8a0 15bd
00000110: 7373 253d 905f 19bd 343a 8b3c b1e3 d6bc
00000120: 5c76 c1bc 02cc b13b c02c f8bc 5163 c6bc
00000130: 60c3 8cbc b505 abbc 9060 5eb8 c76a fd3c
00000140: c019 02b7 cb43 913c 0db3 a1bc 3be4 153d
00000150: dd76 70bb 3127 e3b9 be56 fdbc e79a e5bc
00000160: 33f8 a33c 8312 72bc 7abc 1a3d 52fe 48bd
00000170: e9c2 1bbd 349a 9b3b bfc9 133d a456 f3bc
00000180: bc0a d33c cf6d d1bc 08b6 1cbd e557 dbbc
00000190: bbdf d7bc 5f06 babc fe35 273d 0c71 5abd
000001a0: 4fc4 db3c
-0.013197606 0.053582847 -0.016106106 -0.028315103 0.0 0.0011150937 -0.048693866 -0.029859181
-0.04617092 -0.0116935335 -0.0004023612 -0.031344153 -0.041094 -0.027838312 -0.00021591489 0.008054439
0.0013468062 -0.04262388 -0.018374836 -0.0048934375 -0.039796766 -0.045425717 0.026944106 -0.030081736
-0.030977516 0.011186065 -0.02595526 0.01104276 -0.016871708 -0.023043754 0.02641316 0.032398827
0.029055687 -0.043755785 0.033046816 -0.03368439 -0.038122617 -0.0009734073 -0.006171227 0.005875791
-0.02013903 -0.035900924 0.017901445 -0.01380604 -0.020743104 -0.017987467 0.0076387087 0.037430022
-0.021661263 -0.017652875 -0.024705768 -0.015598247 -0.032404277 0.0146845495 0.016437689 -0.003120239
-0.028814245 -0.014960263 -0.03378395 -0.025601272 0.010262073 0.022717753 0.028222144 0.0075048474
-0.027641332 -0.019850766 0.03667498 -0.036530286 0.040393304 -0.03744465 0.016995527 -0.026231619
-0.023616008 0.005425931 -0.030294776 -0.02421728 -0.017183006 -0.020876745 -5.3018855e-05 0.030934704
-7.754599e-06 0.017732522 -0.019738698 0.03659461 -0.0036691942 -0.00043326014 -0.030925151 -0.028027965
0.020015812 -0.014774921 0.0377774 -0.049070664 -0.038027678 0.004748607 0.036081072 -0.0297044
0.025761954 -0.025565056 -0.038259536 -0.02677531 -0.0263518 -0.022708116 0.040822975 -0.053330466
0.026827006

sequential/dense_2/BiasAdd/ReadVariableOp f4 [105]
00000000: eb31 34bd fff9 503d a9c1 803d beb3 523d
00000010: 7157 373d 6f59 893b 6031 3dbc 1a45 2a3a
00000020: 8e1f 3fbc 4891 13bb 2811 1a3a d915 39bc
00000030: 6f1a 1abc 4d18 cabc b448 08bd 1685 f1bb
00000040: a3a0 7bbc a91c f7bc 5535 463d d584 23bd
00000050: 8e94 cdbc f1d1 ce3b 596a 0abd d4f1 863c
00000060: 66ac 8abb cb4a 393c c0e0 96bb f786 2ebc
00000070: f199 48bc 8722 5b3d 1e8f 55ba d795 dcbc
00000080: a4ab 8d3d 1751 fcbb 6b67 30bd 6bea 3cbc
00000090: 528f 083c 6d0e 8b3c c24f 2fbc 6168 00bc
000000a0: 23b6 76bc f8a8 f23c 6479 42ba 3d76 753b
000000b0: 1e83 7ebc cfd0 09bd 5dfe 5f3c 9d28 94bc
000000c0: b2c5 d4bc 8cdb 6abc 3e69 5c3d 850c 98bc
000000d0: 3922 56bc 8bd8 a83c feb7 843c bddf 78bc
000000e0: ee49 0bbd 4ecf c5bb 9d3b 19bb 0467 823b
000000f0: c6de 2bbc a7fd 043d a168 28bb dcd9 873c
00000100: 0c35 d9bc 2986 bbbc c206 253d bc80 5fbc
00000110: 8c43 ae3b aefd 91bc 89ac a0ba 66c6 f93a
00000120: 2408 1a3c 1cce 523d b544 473c 2629 cc3b
00000130: 2039 51bc 8a6e 07bd 4ded cfbc 4eb0 393a
00000140: 0a75 a3bc d6c4 f7bc 8886 a3bc c5a9 acba
00000150: 9fe0 2e3d c2bb 8539 5760 3fbc 8537 2dbc
00000160: 55ca 353d ba1f 0fbd c37f 1b3d 3059 0abc
00000170: 8222 aebb 8696 0fbd 8ea7 b53a 9949 dcbc
00000180: 4ac5 613d afe5 96bc ab43 a4bc e195 8fbc
00000190: bdca 48bc ac71 343d bf5b 663c f63f 30bc
000001a0: b530 163d
-0.043992918 0.051019665 0.06286938 0.051440947 0.044761125 0.0041915695 -0.011547416 0.0006495282
-0.011665238 -0.0022517014 0.000587719 -0.011296713 -0.009405716 -0.02466979 -0.03327246 -0.0073706014
-0.015358123 -0.030165033 0.048390705 -0.0399216 -0.02509525 0.006311648 -0.033792827 0.016472735
-0.0042319773 0.011309336 -0.004604429 -0.010652295 -0.012243734 0.053499725 -0.00081466313 -0.026926918
0.069175035 -0.0077000964 -0.043067377 -0.011530499 0.0083349515 0.016974652 -0.010700168 -0.007837386
-0.015058073 0.029621586 -0.00074186013 0.0037454509 -0.01553419 -0.0336464 0.013671485 -0.018085772
-0.025973175 -0.014334571 0.053811304 -0.018560657 -0.013069683 0.020611068 0.016201016 -0.015190062
-0.03400605 -0.0060366755 -0.002338148 0.0039795656 -0.010490125 0.032468464 -0.002569713 0.016583376
-0.026514553 -0.022891121 0.040289648 -0.0136415325 0.005318111 -0.01782116 -0.0012258451 0.001905632
0.009401355 0.051466092 0.012162377 0.006230491 -0.012769967 -0.033064403 -0.025381709 0.00070834614
-0.01995327 -0.030245226 -0.01996161 -0.0013173154 0.042694684 0.00025507627 -0.011680684 -0.010572319
0.044382412 -0.034942366 0.03796364 -0.0084441155 -0.0053141722 -0.03505566 0.0013859139 -0.026890563
0.05511979 -0.018420069 -0.020051798 -0.017527523 -0.012255368 0.04405372 0.01405996 -0.010757437
0.036667544

sequential/dense_10/BiasAdd/ReadVariableOp f4 [105]
00000000: f95c b23c e039 f33d e73f b73d b476 8c3d
00000010: 6964 ac3d 640b dcbc 9a3a d63d 8d80 3fbc
00000020: cef7 343c 295e 72bc 7dfe f33d 06f4 8b3d
00000030: 2eb0 b33d 2e90 8d3c 976e 50bc b047 153d
00000040: b04f 2f3c 3746 003e 1027 b43d 703c d0bc
00000050: 6378 e13c ccbf ad3c 7b1f 163d 2001 ea3d
00000060: a161 d53d 784c c63d 0b8f 51bc c624 34bc
00000070: 07be a73d df1a e53d 9593 e33d f262 c33d
00000080: abe5 5dbc 8686 b03c cd1a e03d 67a7 a13d
00000090: 0a98 5fbc 479f b93d afa2 a5bc ebee 8e3d
000000a0: 61d0 35bc ca56 9e3d 13b0 10bc cf1a 373d
000000b0: f3f7 83bc ec2c f13d d506 80bc cd69 e8bc
000000c0: bad4 d03d 7b77 7ebc d468 c4bc 5bfd 893d
000000d0: 6779 98bc 1929 0a3d 852f 913b e6d6 523c
000000e0: 3653 3bbc dd5e b43d 30c9 bd3d f7e8 953d
000000f0: a513 fc3d ba84 e53d 2309 abbc c04e 9d3d
00000100: 8050 9e3d 0eb2 8cbc f67c a93d bcd7 e33d
00000110: f8f8 003d 8518 4cbc 3bbc 953d 1a0f 3b3c
00000120: 4217 ad3d 6f24 013e 2d53 b0bc 61de 1b3d
00000130: d61c 3fbc 2902 95bc a86b 543c 0ece 78bc
00000140: bae5 a03d fc75 473d cf97 aebc c28b a63d
00000150: 5c6c 643c 8ee8 883c 5e6b a43d 8dff 9f3d
00000160: baf7 d13d 2611 b23d 3e99 a33d ba07 a03d
00000170: 165b de3d 5863 563d f30b b53d 5662 ff3d
00000180: 2a31 b53d 46ad bfbc 8247 963d e940 b43d
00000190: 0dbb 9c3d 3dae 07bd bbde a53d ec2d 65ba
000001a0: 5ddc 3bbc
0.021772848 0.11876273 0.08947735 0.06858578 0.08417589 -0.0268609 0.10460396 -0.011688364
0.011045409 -0.014792957 0.11913774 0.06833653 0.08773838 0.017280664 -0.012721679 0.03644532
0.010700151 0.12526785 0.08796513 -0.025419444 0.027523225 0.02120962 0.036651116 0.11425996
0.10419012 0.09682554 -0.012790452 -0.010995096 0.08190542 0.11186766 0.111121334 0.09540357
-0.013543527 0.02154852 0.10942612 0.078932576 -0.013647089 0.09063583 -0.020219175 0.06979164
-0.011097045 0.077313974 -0.008831042 0.0447033 -0.016109442 0.11776146 -0.015628258 -0.028370762
0.10196824 -0.015531416 -0.023975767 0.06737777 -0.018612577 0.0337306 0.0044307136 0.012868619
-0.011433413 0.08807156 0.09266889 0.07319825 0.123084344 0.11206956 -0.02087838 0.07681036
0.07730198 -0.017174747 0.082757875 0.111251324 0.031487435 -0.012457018 0.07311293 0.011417175
0.08451702 0.12611555 -0.021524036 0.038053874 -0.01166459 -0.018189507 0.01296512 -0.015185846
0.07856317 0.048696503 -0.021312622 0.081321254 0.0139418505 0.016712453 0.08028291 0.07812414
0.10252328 0.08694677 0.07988213 0.07813974 0.10857217 0.052340835 0.0884017 0.12469928
0.08847268 -0.023398053 0.07337858 0.08801443 0.076528646 -0.03312515 0.08099123 -0.00087424996
-0.011466113

sequential/dense_11/BiasAdd/ReadVariableOp f4 [105]
00000000: f983 f2bb e5af 943d d131 c8bc b5fc 943d
00000010: 67fd f53c af62 793c 8968 e63d fadb 0dbc
00000020: 845f 4fbc 34ea 3ebc 6107 1abb 6e82 ed3d
00000030: dbaa 5bbc b843 243c ccc2 04bb 5b93 bebb
00000040: 4af1 0dbc aece 07bd e56a da3d d244 c4bb
00000050: 1ed0 e4bc 7de1 b7bb bfe6 edbb 25e6 fe3d
00000060: 2fc4 babb 83b9 813d 0000 0000 d872 f73d
00000070: f792 eb3d fb57 c3bc e3bf 25bb 4833 333c
00000080: 0119 91bb 9fd6 c83d e214 e5bb b1be ff3d
00000090: acb1 2fbc 8f58 8b3d 88ac e83d e6f6 ea3d
000000a0: 9910 f03d a0f6 1b3b e509 9bbc 5c4b 78bc
000000b0: 4628 6dbc edae e9bc b0ed 223d 4c16 02bc
000000c0: fe86 fd3d 5237 933d 285b 0bba e97a a03c
000000d0: a403 e5bb 8a12 db3d 0599 f73d 2f5f d4bb
000000e0: 742c abba 4b76 eebb 7593 bebb ecca 0d3d
000000f0: 3bdc 063e e001 cb3d 8f45 e13d 3c28 c53d
00000100: f39d f53d d27c 2ebc 1ab4 f83d 9f6d 07bb
00000110: 5ce4 9e3d d5f7 8dbc 9269 363d 4390 41bc
00000120: 0d6b 8d3d cb54 ec3d b43d e83d 8446 c83d
00000130: 824e ddbc 55ac c4bb b2af ed3d b8bc 8a3d
00000140: eeb1 c4bb 0fa3 9e3d c0f7 70bb b69e 1abc
00000150: a8fd bc3d 4d19 aebc fc18 01bd 6b15 dcbb
00000160: b4b9 3cbb 45cb e33d 7e9d f83d 1feb d3bb
00000170: 9d59 16bc 28eb a839 ae61 f73d 0000 0000
00000180: a229 963d f3f2 70bc edb0 933d f3b0 c4bb
00000190: c695 41bc 9dec dc3d f9c3 c4bb eb69 c939
000001a0: 36f3 f03d
-0.0074009863 0.07260112 -0.024437817 0.072747625 0.030028058 0.015221282 0.11250407 -0.0086584035
-0.01265705 -0.011652518 -0.0023502933 0.11597143 -0.013407434 0.010025911 -0.002025771 -0.005815906
-0.008663485 -0.03315609 0.1066492 -0.0059896493 -0.02793127 -0.005611597 -0.007260173 0.1244624
-0.0056996564 0.06334212 0.0 0.120824516 0.11502641 -0.023845663 -0.0025291375 0.010937519
-0.0044280295 0.09806561 -0.006991015 0.124875434 -0.010723513 0.068040006 0.11361033 0.114728734
0.11721916 0.0023798123 -0.018925617 -0.015154686 -0.014474934 -0.028525794 0.039777458 -0.007939886
0.12379263 0.07188286 -0.00053160125 0.019589858 -0.0069889594 0.106968954 0.12089733 -0.0064810733
-0.0013059513 -0.007277285 -0.005815918 0.03461735 0.13169949 0.09912467 0.109995954 0.09626815
0.11993017 -0.010649877 0.12143727 -0.0020664704 0.077584 -0.01733009 0.044534273 -0.01181418
0.06905184 0.115396105 0.11339894 0.09779075 -0.027014975 -0.006001989 0.11605777 0.067742765
-0.006002656 0.07745945 -0.0036768764 -0.009437254 0.092280686 -0.021252299 -0.031517968 -0.0067164204
-0.002879721 0.11122755 0.12139414 -0.0064672376 -0.009176639 0.00032218662 0.12079178 0.0
0.073321596 -0.014706361 0.0721148 -0.0060025393 -0.011815494 0.10787318 -0.006004807 0.00038416623
0.11765139

sequential/dense_1/BiasAdd/ReadVariableOp f4 [105]
00000000: 1e4b 89bc 730f 513c 1aa8 52bc 2a14 04bb
00000010: 655e 28bc 3bd1 e03b 84e6 fabb bbbd 823d
00000020: 4f7b 533c dd01 43bc 983d aebc 67c8 1a3d
00000030: 58cf afbc f0cd c43c 440e acbc 6d01 82bc
00000040: 5a8b 403d d3cb fabb c727 ec3c 3870 b63b
00000050: 407d 7abc 7392 833b 9c5d d8bc 4229 0cbc
00000060: 2ba2 83bc 0c7f 72bc fe07 c5bb 166e 9bbc
00000070: e1c6 84bc 7a39 95bc c19a 8f3b caa2 14bc
00000080: d634 0e3d 0e45 cab8 b158 d9bc 923f a23c
00000090: 2e57 c1bc 4fc0 2b3c 84e3 e8bc da6e a1bc
000000a0: 008c e2bc c992 b6bc 7bd2 3e3d 54a9 b1bc
000000b0: 000c 86bc 583a 233d 7a18 6a3d e380 013d
000000c0: 0823 0c3d f41e f8bc 5f3b c5bc 6486 0c3d
000000d0: 63f7 913c d937 87bc 3480 163d 35d6 103d
000000e0: 62a7 c0bc adbc ef3b 0c47 573d 6fb7 1a3d
000000f0: 5ca4 76bc 302a c23c 0f97 9c3c 8538 ccbc
00000100: 7a52 ed3c 519a 10bc 4638 e0bc 6875 0fbd
00000110: 6a67 80ba 8696 c3bc 8302 c7bc 2e6a 863c
00000120: 6493 32bc a37c 51bc db7a 1b3d 297d a5bc
00000130: c7bf a4bc 92f3 8f3b 5ed5 0ebc 4a30 673d
00000140: d6d3 923c d32a 9aba e218 853d 441f 48bc
00000150: 4623 71bb c0eb d6bc 9b88 853c d167 71bb
00000160: 9ac9 ed3c d46c 22bc b3fe 23bd 3df9 f3bb
00000170: 7825 59bb 86b1 8b3b f7c8 223b 6a97 383d
00000180: ad8f 18bc 2d1c 673d 62dd 843d 2de4 143d
00000190: 2ead a8bc 1538 16bd 72cf 863b 6496 88bc
000001a0: 3139 85bc
-0.016759451 0.012760031 -0.012857461 -0.002015362 -0.010276412 0.0068608797 -0.007656874 0.063838445
0.012907817 -0.0119023 -0.021269605 0.037788775 -0.021461174 0.02402398 -0.021002896 -0.01586982
0.047007896 -0.0076536923 0.028827561 0.0055675767 -0.015288651 0.004015261 -0.026411824 -0.0085547585
-0.016068539 -0.014800798 -0.0060129156 -0.018973392 -0.016208114 -0.018215884 0.004382462 -0.009072015
0.034718357 -9.644973e-05 -0.02653155 0.019805703 -0.02360114 0.010482862 -0.0284288 -0.019706178
-0.027654648 -0.02228679 0.04658745 -0.021687187 -0.016363144 0.039850563 0.05715225 0.031617057
0.034213096 -0.030288197 -0.024076162 0.034307852 0.017818158 -0.016506122 0.036743358 0.035360534
-0.023517314 0.007316193 0.05255799 0.037772592 -0.015053835 0.023701757 0.019115 -0.024929294
0.028969992 -0.008825854 -0.027370583 -0.035024077 -0.0009796445 -0.023875486 -0.02429319 0.016408052
-0.0108993985 -0.012786063 0.03795896 -0.020201283 -0.020110978 0.0043930495 -0.008717863 0.056442536
0.017923277 -0.001176203 0.06498887 -0.012214486 -0.0036794706 -0.026235461 0.01630049 -0.003683556
0.029026795 -0.009913642 -0.040037822 -0.007445483 -0.0033133905 0.004263106 0.0024839023 0.045066275
-0.009311599 0.056423355 0.06487538 0.036350418 -0.020590391 -0.036674578 0.004114085 -0.016673274
-0.016262623

sequential/dense_1/MatMul f4 [105, 40]
00000000: 0a7d 123d 277c b3bc 127d e53c 9d73 3fbd
00000010: 9a9b cf3c f4b2 98bc 14ac ff3d 5a44 bdbc
00000020: 8152 28bd e76f 003e 5c21 733c 5d02 e1b9
00000030: 4ad1 27bd b74e 383d 18a6 e13b 4695 753d
00000040: c0fe d4ba 2472 403e 8753 c6bc 4cf4 47bc
00000050: f2e4 ae3c 2b8d d33c 6c94 91bc f404 113e
00000060: 1aea c6bc 623a c6bc 00eb 263b 48ea 053e
00000070: 1e33 a1bc 7419 5dbc 274e 493d 2a8d e53d
00000080: 000a b03d 8a78 34bb e090 8bbc d73c 85ba
00000090: 5d5b 4cbd 7d7c 413d 3b10 823c e7a4 263d
000000a0: 26d9 d5bc c65b ea3c baf5 9a3c 4218 c73c
000000b0: d377 a3bc 0ce8 063c 89c5 0e3e 687d 0d3c
000000c0: d3a5 0a3e 7c06 97bc b7a6 163d 5094 9f3c
000000d0: fa3b b33c 867a 903c b45d 043c de26 06bc
000000e0: 4cf3 67bc 602d d0bc 4ec4 ed3c 20aa c4bc
000000f0: 6a17 3bbd a9cb 073e d314 253d 8cb3 19bd
00000100: d375 d3bc db18 123d 4799 b0bc c4e2 2cbc
00000110: f4bb 473d 9d66 4c3d b02f d73b 6e39 333d
00000120: a5d0 283e 8ae4 17bd 808e 48ba 4b1b f7bc
00000130: 806f b1bc 00d5 acbb 035d 383d 0399 39bd
00000140: 1d7e 1a3d 331b fcbc e8fa 87bb daa7 d23c
00000150: f6ed 01bd bdb4 1f3d 38aa 293e 84c7 01bd
00000160: b78e 7abd 1da3 de3d 532a 333d 7cf1 26bc
00000170: 8d2c 38bd 0060 37bb 001e 353c 8142 be3c
00000180: 86b5 8d3c 8c39 313e 2315 263d c285 9b3c
00000190: e63b df3c 0757 5a3d a055 e8ba d6fe da3d
000001a0: dd12 1a3d 121c e03b 36dc 22bd 5b2e d73d
000001b0: 112e 48bd 46eb 04bd 3077 d63b 4a14 763d
000001c0: bbeb 883d 00fc 11bd 0013 0c39 1968 733b
000001d0: f433 6fbc c034 d03a fd87 9dbc 8079 8fbb
000001e0: dba6 283c 26a5 d63c dac1 d73c 8c3c 37bc
000001f0: 8019 70bc 8d4e 2d3d bb00 133e 86cf 913c
00000200: da3d 44bd 24e1 203d 8431 7b3c 4d3e 74bd
00000210: 53cb 0fbd 7283 bc3c 3d96 3fbd 5302 92bd
00000220: c715 463d 4ae9 143a 180f 9c3b 535d a9bc
00000230: 29d2 423d 5d7d 16bd 9d00 00bd 6ab7 ccbc
00000240: 0353 413d 299c 083e d087 7ebb ed0e 49bd
00000250: a859 e1bd d09d 23bb 8d1e febc d859 7cbc
00000260: e49e 61bd d991 dc3d 93c1 4abd ea16 a0bc
00000270: a739 9dbc 403d e5bc f7cd 8a3d 8d75 2d3d
00000280: f59c 053e 8629 8c3c e063 debc 5dcc 11bd
00000290: 2217 f33c d8ea 0cbc 7a5c 253e 60eb fbbc
000002a0: a43b 89bd db02 193e c65e 8b3c b3b9 0abd
000002b0: 50e6 28bd 5016 843b 003b c939 3688 8f3d
000002c0: 9162 003d e141 333e 860f f53c 8a1c 27bd
000002d0: d220 843c 0e2f 5f3c ca30 22bd d59f dc3d
000002e0: 1a7f cfbc 4358 7d3c c0c9 05bd e919 c53d
000002f0: f59b 45bd 07f7 323d c75a c8bc 146e a53d
00000300: 2383 2d3d a859 073c 0006 36bc b75b eb3c
00000310: b013 d33b addd 0f3d 7566 eb3c b249 c33c
00000320: 9372 bdbc 5af1 d13c d3cb 023d 2661 f03c
00000330: ca91 18bd 6dd3 073d 8ab3 983d 98b4 4bbc
00000340: 0e9d d23d 4ec5 59bc 749a 533c 9ce1 a03d
00000350: 002c e5b8 b4d9 1f3c e875 52bc 51c4 09be
00000360: 13f4 9ebc 32f3 d1bc e267 fb3c 3d4d 15bd
00000370: ade8 b2bc 957a 883d 0457 763c 79c9 1cbd
00000380: c39e 40bd 27a9 c83d 7745 323d ad29 013d
00000390: 1629 323d b3ab a2bc a0c7 1cbd 3315 5fbd
000003a0: 963e 32be 1491 323e 46d5 1cbd f38d a23c
000003b0: ce10 f53c b055 cebb 0097 ee3d 977f 213d
000003c0: ff36 083e 002f 0cbb 5af9 933c 4cb4 89bc
000003d0: 6892 05bc 3a70 06bd 0fe2 e33e 18ed ecbb
000003e0: 0cd5 013e 6de1 a93e a07c 8ebc cbc0 a83d
000003f0: 07f8 dfbc a2db 923c 5027 c0bb c160 6f3e
0.035763778 -0.021909786 0.02801374 -0.046741117 0.025342751 -0.018640019 0.12483993 -0.023103882
-0.041094307 0.12542687 0.014839496 -0.00042917105 -0.040971078 0.044996943 0.006886255 0.05995681
-0.0016250238 0.18793541 -0.02420975 -0.012204241 0.021349404 0.02582415 -0.017770968 0.14162046
-0.02428155 -0.024197761 0.002546966 0.13077652 -0.019677695 -0.013494838 0.049146798 0.112085655
0.08595657 -0.0027537667 -0.017036855 -0.0010165226 -0.04989182 0.047237862 0.01587688 0.040684607
-0.026104521 0.028608214 0.018916 0.02430356 -0.019954598 0.008234035 0.13942541 0.008635856
0.1353982 -0.01843571 0.036780085 0.0194799 0.021879185 0.017636549 0.008078981 -0.008187978
-0.014157128 -0.025412261 0.02902427 -0.024006903 -0.045676626 0.13261284 0.040303063 -0.037524745
-0.025813019 0.035668235 -0.021557463 -0.010552112 0.04876323 0.049902547 0.006566964 0.04375594
0.16485842 -0.037083186 -0.00076506287 -0.030164381 -0.021659613 -0.005274415 0.045010578 -0.04531194
0.037717927 -0.030774688 -0.0041497834 0.025714803 -0.031721078 0.038990725 0.1656884 -0.031684414
-0.06117126 0.10870955 0.043741535 -0.01018941 -0.044964362 -0.0027980804 0.011054516 0.02322507
0.017298471 0.17307109 0.0405475 0.01898468 0.027250241 0.053305652 -0.0017725714 0.10693137
0.037615646 0.0068392837 -0.03976079 0.105068885 -0.048872057 -0.032450937 0.00654497 0.060077943
0.06685587 -0.035640717 0.00013358518 0.0037140904 -0.014599789 0.0015884861 -0.019229883 -0.0043784976
0.010293688 0.026201796 0.026337553 -0.011183869 -0.014654517 0.04231124 0.14355747 0.01779915
-0.04791055 0.03927721 0.01533163 -0.059629727 -0.035106014 0.023011897 -0.046774138 -0.071293496
0.048360612 0.0005680515 0.0047625415 -0.020674383 0.047563706 -0.03674065 -0.031250585 -0.024989802
0.047198307 0.1334082 -0.0038838275 -0.0490865 -0.11003429 -0.002496589 -0.031020427 -0.01540228
-0.05508317 0.10770006 -0.049501013 -0.019542176 -0.01919253 -0.027983308 0.06777566 0.042348433
0.13048156 0.017109644 -0.027147233 -0.035595287 0.029674117 -0.008600913 0.16148558 -0.030751884
-0.06700829 0.14942496 0.017012965 -0.033868503 -0.041235268 0.00403098 0.00038381666 0.07008402
0.031344 0.175056 0.029914629 -0.0407987 0.016128931 0.013622059 -0.03959731 0.10772673
-0.025329161 0.015462938 -0.032663107 0.096240826 -0.048244435 0.043692615 -0.024457349 0.08077636
0.04236139 0.008261122 -0.011109829 0.028730256 0.006441556 0.035123516 0.028735379 0.023838852
-0.023125922 0.02562778 0.031932663 0.029343199 -0.03724841 0.033160616 0.07456119 -0.012433194
0.10283862 -0.01329167 0.012915242 0.078555316 -0.000109277666 0.009756494 -0.012845494 -0.13453795
-0.019403493 -0.02562866 0.030689184 -0.036450613 -0.021839464 0.06664006 0.015035395 -0.038278077
-0.047026407 0.09797888 0.043523278 0.031533886 0.043496214 -0.019857263 -0.038276315 -0.054463577
-0.17406687 0.17438155 -0.03828933 0.019843077 0.02991524 -0.006296836 0.11649895 0.03942832
0.1330223 -0.002139032 0.018063236 -0.016809605 -0.008152582 -0.03282187 0.44508407 -0.007230412
0.12678927 0.331798 -0.01739341 0.08239897 -0.027339948 0.017926995 -0.0058640614 0.23376752

sequential/dense_2/MatMul f4 [105, 105]
00000000: b1ab 4d3d 61c5 b63c 0f78 593d 5a7f 033d
00000010: f720 93bb 3479 583c 9a4b 143e dee7 4fbd
00000020: 8012 c7bd 3e2e 83bc 7f3c aebc ea23 50bc
00000030: 388f 08bd cae2 28bd 56d2 863d 961f fbbc
00000040: 7568 3bbd 2797 843c f337 14bd 74e3 49bd
00000050: 53e3 aa3b cf8a 2fbd 9a6b 483d d87d 7f3d
00000060: 9235 40bd 370a 0fbd b6af a13e 8f5c 8a3d
00000070: 16f3 533c f26d 30bc 9358 e4bb 0dc8 a73d
00000080: b935 e1bd 2d03 a43c 4f8f ad3b 6a7c e9bd
00000090: a624 3bbc 02ef 9d3b 67bb 553d 8958 b9bd
000000a0: 7a74 b23d 4d27 adbc dd55 aabd a25a 27bc
000000b0: d523 9a3c 195c d9bd 48f0 89bd c388 b2bd
000000c0: f6d6 e9bd f612 ba3d bcd4 723b 86c2 08bc
000000d0: ea35 fbbd f076 963c 2fc1 85bd 2e69 7c3c
000000e0: 9b69 013b 760f ebbd 963f afbd f561 84be
000000f0: b0a5 373d cffa 93bc 52b7 283d 19d7 ba3c
00000100: 1475 97bc 6788 b9bc dd18 ed3d 9bb8 343d
00000110: 3c36 69bd 1c92 853d 6048 f6bb 0e50 68bd
00000120: 93be 1b3c 369b 423d b2dd 0ebe ab96 4e3d
00000130: 3092 253d 574e 91bd fc88 cdbc 48fa c7bc
00000140: c289 19be 0b14 41bd 0e7c 79bd 5b97 423d
00000150: 6aea 273d c19c 043d 6e1e 16be 26a3 503d
00000160: 0e17 87bc 4599 503d 9643 8cbc a60f 633b
00000170: 5d7c 9ebc 6430 d0bd 1a84 db3c fd3f 863c
00000180: 72af 673d ff5f c0bc ccc0 0abd f243 02bb
00000190: 8f24 d93c 33a9 c0bc 1897 8fbc 3de9 ae3d
000001a0: bc7c 15bc d9bf 663c bd7b 183d 1481 38bd
000001b0: 7d84 bfbb 03eb 00bc 3335 833d fa3f e7bd
000001c0: b898 c13d 1298 9a3d aa09 bcbd ce77 09bc
000001d0: 07d4 483d 0f2d 163d a61a 1d3d c570 17bd
000001e0: e441 733c a1d9 bf3d 45af 1b3d 6f3d 993d
000001f0: 4cef 153e 2928 e7bc 5d75 3e3d d460 85bb
00000200: 0b46 47bd 4d51 2c3d f5fc 0c3d da5b 713d
00000210: 38a9 84bc fe1e 9dbc d6c1 043c 499c adbc
00000220: b1fd 573d ffd5 b43d fa24 803d 0ebc 143d
00000230: 7bcc c13d 1b95 373d 84d4 2e3d 71d1 0b3d
00000240: f95f a7bc 01ce 32bc 3364 45bc 0cf9 f23d
00000250: 0bd1 403c 023f 60bd 5cc6 9f3d 87f3 c43d
00000260: 8d07 d43d dc2d 973d 7450 38bc 7491 81bc
00000270: 2e24 8f3d 782e c33d b1e6 20bc 7ffd 9f3d
00000280: 4da4 0c3d 7a53 793d ee2c a93e 94f4 ab3d
00000290: 483a df3d 82d4 a3bb 7f08 903c ecb5 b0bd
000002a0: bae2 4fbd 5a1e 493d ae30 1cbd 9990 883d
000002b0: 07f2 48bc 63b9 9c3d 9e90 95bc 9c25 ca3c
000002c0: 86c7 d33c 0cbb 883b 8479 9e3c cb76 d83d
000002d0: bf29 29bd 7eca 56bc d77f 8e3d ba9a 86bc
000002e0: b259 b13d c497 6d3d 9b8f fd3c c283 0d3d
000002f0: 7bac 95bd 8504 62bd 3438 f7bc bc3a 313d
00000300: d69d c3bd 9752 7d3d 963c 81bd a277 5bb9
00000310: dcaa c3bb 3e7f e83c 8471 f43c 83a9 113d
00000320: 276b 163e 012e 4b3d d395 d43d b87b 653d
00000330: 4a56 e53d 0143 a4bd 201f 5cbc 73a6 ba3d
00000340: b1b3 453c a519 72bc 8d9d 1cbd 5a42 a33d
00000350: b72b 863b f5c7 433d 3d30 94bc 1b9d d53d
00000360: 99ba e6bd 9261 8e3d ec18 dd3c 313a aebd
00000370: b3ce 3d3c 1676 983d 95dd 2cbb 589c 8e3d
00000380: 9570 f7bc e0be 6bbd 2880 9d3d 6833 e83c
00000390: 94ce 9f3d 2e64 3b3e c268 4abd 10e2 643d
000003a0: 0e4a 653b 064a dcbc 1697 2fbd 86c9 733d
000003b0: 6171 713d 5b8c 80bd 9d5c ae3b e9f3 57bd
000003c0: 61b0 763b 445f 123d 5866 c43c b132 893d
000003d0: 4a43 39bb 58c7 753d 4a7c 13bc ba9e 1e3c
000003e0: 3f11 993d 80d2 38bb 2306 733d c287 a5bd
000003f0: c1a5 943d b04a dcbc 3421 98bd 68ca e03b
0.050212566 0.022310914 0.053093012 0.032103874 -0.0044900137 0.013212491 0.14481965 -0.050758235
-0.097203255 -0.01601326 -0.021269081 -0.012703875 -0.03333971 -0.041231908 0.06583087 -0.03065471
-0.045753915 0.016185356 -0.03618617 -0.04928918 0.0052150874 -0.042856988 0.04893074 0.062375873
-0.04692609 -0.03492185 0.3157937 0.067559354 0.012936374 -0.0107684005 -0.0069685667 0.081924535
-0.10996575 0.020021046 0.0052966247 -0.11400683 -0.011422312 0.0048197517 0.052180674 -0.0905009
0.087136224 -0.021136904 -0.08317158 -0.01021448 0.018815914 -0.10613269 -0.06735283 -0.087174915
-0.11417954 0.09085648 0.003705307 -0.008347159 -0.12266143 0.01836726 -0.065309875 0.015405936
0.0019746784 -0.11477558 -0.0855705 -0.25855985 0.044835746 -0.01806393 0.041190453 0.022807645
-0.018488444 -0.02264805 0.11577008 0.044121366 -0.056936488 0.06522009 -0.007515952 -0.05671697
0.009505886 0.047511302 -0.13951758 0.050436657 0.04042262 -0.0709502 -0.025089733 -0.024411336
-0.14993957 -0.047138255 -0.060909323 0.047507625 0.04099504 0.032376055 -0.14660046 0.05093684
-0.016490486 0.05092742 -0.017122071 0.0034646778 -0.01934641 -0.1016548 0.02679639 0.016387934
0.056563802 -0.023483275 -0.03387527 -0.0019876924 0.02650669 -0.02351818 -0.017528102 0.085405804
-0.009123977 0.014083826 0.03722738 -0.045044973 -0.0058446513 -0.007868531 0.06406631 -0.112914994
0.09452957 0.07548536 -0.09181531 -0.00839038 0.04903033 0.036664065 0.038355492 -0.03697278
0.0148472525 0.09367681 0.038008947 0.07482421 0.14642066 -0.028217392 0.046498645 -0.0040703807
-0.048650783 0.042069722 0.034420926 0.058925487 -0.016193971 -0.019179817 0.008102855 -0.021192687
0.052732173 0.08829879 0.06257053 0.036312155 0.0946283 0.044819932 0.04268314 0.034135286
-0.020431506 -0.010913373 -0.012047815 0.11863908 0.01176859 -0.05474759 0.07801506 0.09616762
0.10353003 0.07381794 -0.01124965 -0.015816428 0.069893226 0.095303476 -0.009820626 0.078120224
0.034336377 0.060870625 0.3304209 0.08396259 0.10899788 -0.004999698 0.017582176 -0.08628449
-0.050753333 0.04910121 -0.038132362 0.06668205 -0.012264735 0.07652547 -0.018257435 0.024676137
0.025851976 0.0041726884 0.019345053 0.10569533 -0.041299578 -0.013109801 0.06957977 -0.016431201
0.08659686 0.058006063 0.030952265 0.034549482 -0.07308289 -0.05518009 -0.030178167 0.043268904
-0.09551589 0.061846342 -0.06310384 -0.00020930034 -0.0059712958 0.028380986 0.029839285 0.03556205
0.14689313 0.04960442 0.10380139 0.05602619 0.11198099 -0.080205925 -0.013435155 0.09113779
0.012066768 -0.014776622 -0.03823619 0.0797164 0.0040945667 0.047798116 -0.018089408 0.10430356
-0.112660594 0.06952204 0.026989423 -0.08507193 0.011584925 0.07444398 -0.002637719 0.06963414
-0.03020505 -0.05755508 0.076904595 0.028344825 0.078030735 0.18299934 -0.04941631 0.055879653
0.0034986767 -0.026890766 -0.042868696 0.05951836 0.058946017 -0.06276771 0.005321099 -0.052722845
0.003764175 0.035735384 0.023974583 0.06699122 -0.0028268867 0.060004562 -0.009001801 0.009681398
0.074739926 -0.002820164 0.059332024 -0.080825344 0.072581775 -0.026891083 -0.07428208 0.006860066

sequential/dense_3/MatMul f4 [105, 105]
00000000: 9a78 f23d c02c a4bd 4689 1ebd 3354 91bb
00000010: 9e34 88bd 6620 973c 804c 5bbb d0b8 0b3d
00000020: a542 443d 750e 2a3c 11a6 723e 5ea9 503d
00000030: 54f6 91bc ba5f a73d 1be0 2b3d f03f f23c
00000040: 9090 cc3c f6a3 873c fb3d 79bd c473 b13c
00000050: 630a 0b3d fe5b f13d f9f3 b1bc 4074 27bd
00000060: 6250 e73c 8c43 54bd 2b08 8a3d 1330 853d
00000070: 8cb2 96ba 05a2 32bd 30ec 23bd fbe1 1e3d
00000080: cfbf a7bd 4107 9dbc fd1f 8d3c c66f 1ebd
00000090: cabc da3c 59cf 30bd 0012 a03d 91b0 30bc
000000a0: 6113 1ebd 6746 92bd de39 923d 8ab5 95bc
000000b0: 2e5b dbbc 9fdd 0a3e e933 a93c 8968 423d
000000c0: 4884 c23d e26f 0e3c 2ff8 8fbd ed26 fbbc
000000d0: ab91 2f3d 66a6 1bbd b6ed 81bc c429 b03d
000000e0: f51a 443d c328 2dbd 3979 a53d 564c 673c
000000f0: ae89 333d 56ec a6bc 2c02 f33c 95e5 13bd
00000100: 9774 513d e216 0fbb 9441 9bbd 9ea0 c73c
00000110: 7cc1 be3d 8e2c cebc 6403 873d 914e 9d3d
00000120: 2fe0 2f3d 9e4e 46bd f333 ad3d eb5b fc3d
00000130: 0a05 353d 2e9d d73a 5059 d63c 5420 70bb
00000140: 6df9 a83d b2e2 113d 99c9 2d3b d82f 213d
00000150: b4fd 5dbd 6323 8a3d 0948 4d3d dd15 893c
00000160: 91c8 8539 50df 2fbc 8cbe e8bc d290 eabc
00000170: 09ec 023c 2d41 0e3e dc33 d23c 44ca 9e3d
00000180: 1db0 b4bc 56cf b43d 3490 4f3d e827 cf3b
00000190: 05b7 503d 7275 68bd d39c 00bd 68b4 3d3d
000001a0: f122 19bd f91c 813c 5846 d33d f2e1 a93d
000001b0: 5bd3 633d a218 d33d e2fc ce3d 323f 943c
000001c0: 85ac 06be 3f99 4ebd da07 0bbd cb6b 7a3d
000001d0: 8fdd 55bd 414e 203d abaf 473d fca8 763d
000001e0: 821e fa3d 945e 4abd 9a02 20bd 8af0 993c
000001f0: 5e5d 4d3b 4dee 88bb 12b6 e33d 091b 4d3b
00000200: b832 ce3d 0790 dfbd 41ad 853d 937c a5bc
00000210: 8ac4 d9bc 86b9 a2bd fd9e 713d 525e 6a3d
00000220: 18a3 0f3d 16a0 6e3d 99b6 2f3d a28c 583c
00000230: 763b 41bc bd0c 863d 21b6 973d 6fd8 60bd
00000240: 849e 1ebd 2e78 3abd 84e0 8c3d 9dac c03c
00000250: a8c2 d4bd fb37 30bd 01ef 1b3e 9bea 3b3d
00000260: 0722 b33d 82d9 2fbd f6a9 6fbd ee7c 8c3d
00000270: 28dc 453d 58da c03c abc6 a33d d4e4 e43c
00000280: 2af2 e3bb 4099 41bc 00a7 8c3c 7058 fa3c
00000290: 6786 7bbd a5a4 04bd 207a d63c d63e d3bd
000002a0: 70b5 513c a20a c0bb 1c13 7abd a076 733d
000002b0: 1c9c 343d 91a9 9f3d 5c0e e6bc 8012 81bd
000002c0: 889f b03d 469d c9bc 499f d43d d5b0 f83d
000002d0: a444 003d af87 babd 0754 2d3d 74a9 193d
000002e0: 7531 b7bd 7be5 79bd b1d1 89bc 65c1 61bd
000002f0: a7d3 e5bc e293 893d 0dc7 cabd 6d58 19bd
00000300: 38c8 e7bd 2928 bb3d 0c45 23bd 1614 373c
00000310: 3863 7abd 6734 b4bd ac1c cb3d e033 7abd
00000320: ef22 5fbd f8e9 ad3c a660 73bd 340f cb3c
00000330: 4eda 3dbd 59dc 94bd 6c7a 9c3d 4f67 fb3d
00000340: 96c3 06bd 3316 b33d 1ac6 4c3b 0c33 33bd
00000350: 228e cf3c 7252 053b 5e9e 093d acda f43c
00000360: c1b5 e4bc 9990 f03c e30d dd3c 31d6 033d
00000370: 63b2 1ebd c012 893c 43e5 a1bc 479e 073d
00000380: b64c f4bc 5fd0 dcbc c5d6 03bd 9a7e d9bc
00000390: 55c5 293c 451b 19bc f727 76bc 0c8f a4bc
000003a0: 3964 403d f540 f4bc 9cbc 0dbc 5291 83bd
000003b0: 4895 9a3c 5521 8ebb 2302 80bd e667 85bd
000003c0: 1a0e b0bb b164 68bc 9293 65bd 2eea d83c
000003d0: e9e5 1dbd b970 473d 1489 32bc 3157 bbbc
000003e0: 14f8 a7bc 6249 ea3c 86cf 443d 5932 d33c
000003f0: 7b42 933c 01e8 5bbc 639e 1cbd 64cd 3ebd
0.11839409 -0.08016348 -0.038705133 -0.004435086 -0.06650661 0.018448066 -0.0033462346 0.034111798
0.04791512 0.010379423 0.23696162 0.05094277 -0.017817654 0.08172555 0.04196177 0.029571503
0.024971277 0.016557675 -0.060850125 0.021661647 0.033945452 0.11785124 -0.02172278 -0.04088235
0.028236572 -0.05182223 0.06739839 0.0650331 -0.0011497303 -0.043611545 -0.040020168 0.03878973
-0.081908815 -0.019168498 0.017227167 -0.038680814 0.02670135 -0.043166492 0.07815933 -0.010784284
-0.0385927 -0.071423344 0.071399435 -0.018275041 -0.026776876 0.13561104 0.020654636 0.047462974
0.09497887 0.008693667 -0.07029759 -0.03065821 0.04286353 -0.038000487 -0.01586042 0.08601716
0.04787727 -0.0422752 0.08079762 0.014117321 0.043832473 -0.020376366 0.029664122 -0.03610762
0.05113658 -0.0021833708 -0.075808674 0.02436858 0.09314248 -0.02516773 0.065924436 0.07681001
0.042938408 -0.04841482 0.08457174 0.123222195 0.04419426 0.0016450041 0.026165634 -0.0036640363
0.08250699 0.035616584 0.0026517867 0.039352268 -0.05419703 0.06745031 0.050117526 0.016734058
0.0002551717 -0.010734394 -0.028411172 -0.028633509 0.0079908455 0.1389205 0.025659494 0.07753423
-0.022056634 0.08828609 0.050674632 0.006321896 0.05095579 -0.05675263 -0.03139956 0.046314627
-0.03738684 0.015760886 0.103161514 0.08295049 0.055621486 0.10307433 0.10106827 0.01809654
-0.13151748 -0.050439116 -0.033943035 0.061137956 -0.052213248 0.03913713 0.048751514 0.06021975
0.1221285 -0.049406603 -0.03906498 0.018791456 0.0031336169 -0.0041787983 0.111187115 0.0031296632
0.100682676 -0.10916143 0.06527186 -0.020201003 -0.026582975 -0.07945542 0.058989514 0.057218857
0.035067648 0.05825814 0.042898748 0.013217123 -0.011793962 0.065453984 0.07407785 -0.054893907
-0.03872539 -0.04552477 0.068787605 0.023519808 -0.1038869 -0.043022137 0.15227892 0.045878034
0.087467246 -0.04293204 -0.058511697 0.06859766 0.04830566 0.023541614 0.07996877 0.027941145
-0.0069563584 -0.011816323 0.017169476 0.030559748 -0.061407473 -0.03238358 0.02618128 -0.103147194
0.012799606 -0.0058606425 -0.06105338 0.0594393 0.04409419 0.07796014 -0.028083019 -0.06302357
0.08624178 -0.024611127 0.10381944 0.12143103 0.03131546 -0.09107911 0.042316463 0.03751512
-0.0894498 -0.061009865 -0.016823621 -0.055116076 -0.028055025 0.067176595 -0.09901247 -0.037437845
-0.113174856 0.09138519 -0.03986077 0.011174222 -0.06112978 -0.087990575 0.09917578 -0.061084628
-0.054476675 0.021229729 -0.059418343 0.024787523 -0.04635077 -0.072685905 0.076405376 0.12275564
-0.03290137 0.087444685 0.0031246007 -0.043749854 0.025336329 0.002034333 0.033598296 0.029889427
-0.027918698 0.029365825 0.02698416 0.03218669 -0.03874434 0.016732574 -0.01976264 0.03310993
-0.029821735 -0.026954828 -0.032187242 -0.026549626 0.010361989 -0.0093448805 -0.015024177 -0.020087741
0.04697058 -0.02981613 -0.008650925 -0.06424202 0.018870011 -0.0043374696 -0.062504075 -0.06513958
-0.005372775 -0.014184163 -0.056048937 0.026478853 -0.038549338 0.048691485 -0.01089694 -0.022868725
-0.020504035 0.028599445 0.048049472 0.025780844 0.017976036 -0.013422013 -0.038236987 -0.046582595
